runs/checkpoint.pth.tar (torch, 12826 bytes, 4 tensors)

A.0.weight f4 [10, 10, 3, 3]
00000000: 9568 4abc 478c 0dbd fd32 dbbc 87be 98bc
00000010: 7ab9 013c 5ff6 f33c 85d9 b33c 80c7 cd3c
00000020: 44fe 4b3d 2e65 d0bb 62d2 5b3c 1e4e ed3c
00000030: 321b 1ebd fc99 20bd 56e9 77bd 142b be3b
00000040: e961 963c 3518 da3c 0204 2b3b a7ca 64bc
00000050: ce81 9dbc f47d 683d 1a06 ca3d 8b47 d83d
00000060: 7733 993d 7176 913d 7719 da3d 1803 303c
00000070: 42d4 903b 21f8 90bb c962 97bd f551 b2bd
00000080: 7914 91bd 55e0 16bd 4e15 0bbd 1754 2cbd
00000090: 3466 883c 6693 473c e8b9 ce3b d3d5 51bd
000000a0: c2aa cebd ba2d 1dbe b597 20bd 2ca1 dfbc
000000b0: 2a51 57bd 05fc 243c ce97 cc3b 94e0 893b
000000c0: 2691 76bd faf5 b9bd f838 a7bd d635 49bd
000000d0: 2405 22bd 1295 19bd 67ab a43c 6cd4 393c
000000e0: c4ef aabb 1b1a a2bd 7df2 bbbd d44b b1bd
000000f0: bd4e c9bc cb34 ebbc 67f2 53bd 84a3 02bd
00000100: 2245 d93c 8acc 0abd 4e4e a3be 13a9 c9be
00000110: 0d46 9fbe f259 853e 438f 983e 2f94 963e
00000120: 9e64 9d3c c961 843c 3599 a43b 6eaa 74bd
00000130: 7029 85bd 1bf7 90bd 6a28 05bd 77a9 30bd
00000140: c1ef 90bd 3d52 a33c 6a61 c13c 0dec 463c
00000150: aaa5 38bd 730d e9bc 2226 6cba 91e0 86bc
00000160: f57c ebbc 4c50 8fbd ffd3 5eb5 9db0 04b5
00000170: d502 2bb5 124a 4fb5 1671 6eb5 4b67 ceb4
00000180: eea5 18b5 4927 09b5 2c12 0ab5 3771 84b5
00000190: 3252 18b5 c2b7 49b5 0e1a 49b5 5bcc 8ab5
000001a0: 1c83 03b5 8f22 feb4 9dbf 0eb5 89e8 2db5
000001b0: df36 f3b4 597e 65b4 3458 abb4 7030 fcb4
000001c0: 272f 06b5 f3e2 67b4 d190 c3b4 c7fd b5b4
000001d0: 73b8 9ab4 0ca8 8bb3 4e29 2bb4 67d1 30b3
000001e0: 87f7 62b4 15b1 7db4 d953 69b4 f10a cfb3
000001f0: 22b6 d4b3 bcf8 e0b3 b20e e3b3 4f7c 72b4
00000200: 1a1f 1db4 53ae 9bb4 479a ccb4 422f deb4
00000210: 46da 15b4 a003 83b4 4c14 78b4 7af0 c2b3
00000220: e9e5 4eb4 fa0a acb3 b6e1 71b4 0c02 93b4
00000230: 7d46 88b4 487e f5b3 b520 0cb4 3934 1ab4
00000240: 4702 b8b3 a5dc 4eb4 2e60 a3b3 6148 86b4
00000250: c4f2 92b4 2384 97b4 81a1 07b4 f93d 1ab4
00000260: 7ad6 18b4 2706 1cb4 5864 adb1 5bd2 0933
00000270: e968 0fb4 a09a 9db3 a8e3 bdb3 e0a3 3fb4
00000280: eb3e 0bb4 8c9e 36b3 5934 ceb3 d3c7 5eb4
00000290: a59f b1b3 7139 8bb4 ba78 94b4 2bdc 9eb4
000002a0: ff45 13b4 039f 30b4 f93d 33b4 c4cf 5cb3
000002b0: 62c0 1ab4 1b1a a9b2 ee5c 40b4 8c15 3cb4
000002c0: 8527 38b4 b5b5 9eb3 ad41 94b3 ac29 b2b3
000002d0: e0b8 82bc cc8c 37bc 7264 ce3c 04b3 fdbd
000002e0: 1789 213c 252f efbc db39 c13b dbf6 43bb
000002f0: 9a81 823c 3afb 0bbd dcf5 2abd a0cf 52bb
00000300: ccc8 1abe 70d2 a4bc 66e6 30bd 4000 40b8
00000310: 1ce7 febb 6386 9f3c a74e a7bb c1c7 99bb
00000320: 32b3 a63c d982 d1bd 8bde e73c b59d dcbc
00000330: eb47 adbc 9514 72bc beec 223c 29eb dd3c
00000340: ac71 ad3c c5de 23ba 06f3 a93d 1313 23bd
00000350: a218 b43c 3415 313d 7c85 4a3d dd80 8e3c
00000360: 943c bc3c 8403 853d bc21 a53c 7c49 b63d
00000370: bf31 3fbc 6748 f73c 147c 3b3d aa19 9d3d
00000380: 84b4 0d3d 5b9d 813c 3858 003d 3602 28bc
00000390: d12e a73d 3df9 ecbc d354 853c 2711 293d
000003a0: 7696 8b3d 1576 5b3c 7b70 043d 0dbb 1a3d
000003b0: f1a2 ea3b 2853 ae3d ce9e fdbc 2aff d53c
000003c0: 3265 2c3d a633 4d3d 0e80 aa3c eecb 173d
000003d0: 6c61 9a3d 534c 213c e7af 613d ccec dc3c
000003e0: aa3c 143d d8d6 b7bd beeb 6dbd 48c9 9fbc
000003f0: c7d8 be3c e30f 053d ed9e 4cbb 6491 a13d
-0.012354036 -0.034557607 -0.026757712 -0.018645538 0.007917756 0.029780565 0.021954307 0.025119543
0.049803033 -0.006359718 0.013416858 0.028967913 -0.038600154 -0.03920935 -0.06052526 0.005803475
0.018357234 0.026622871 0.0026094918 -0.013964332 -0.019226935 0.056760743 0.09864445 0.10560521
0.07480519 0.07102669 0.10649388 0.010742925 0.0044198344 -0.0044241105 -0.07391889 -0.08707038
-0.07083983 -0.036835033 -0.033955865 -0.04207238 0.016650297 0.012181139 0.006308783 -0.05122931
-0.10091163 -0.15349475 -0.03920718 -0.027298532 -0.05256764 0.010069852 0.0062436825 0.00420768
-0.060197018 -0.090801194 -0.08165163 -0.049123608 -0.039555684 -0.03749568 0.020101262 0.011342149
-0.0052165706 -0.079151355 -0.0917711 -0.08657041 -0.024573678 -0.028711697 -0.051744845 -0.031894222
0.026522223 -0.03388647 -0.3189568 -0.39386806 -0.31108132 0.26045185 0.297968 0.2940993
0.019213017 0.016159909 0.0050231465 -0.059732847 -0.06502044 -0.07078382 -0.032509245 -0.043130364
-0.070769794 0.019936675 0.023606021 0.01214124 -0.045079865 -0.028448796 -0.0009008368 -0.016464503
-0.028746108 -0.06997737 -8.300994e-07 -4.943084e-07 -6.3706585e-07 -7.7221296e-07 -8.882647e-07 -3.8445646e-07
-5.686587e-07 -5.1093645e-07 -5.143545e-07 -9.867716e-07 -5.674402e-07 -7.514574e-07 -7.491625e-07 -1.0341276e-06
-4.899209e-07 -4.7336331e-07 -5.3177956e-07 -6.4785905e-07 -4.53022e-07 -2.1373252e-07 -3.1915408e-07 -4.69739e-07
-4.9987506e-07 -2.1596115e-07 -3.6426948e-07 -3.3898525e-07 -2.881894e-07 -6.5032594e-08 -1.5940643e-07 -4.1168644e-08
-2.113794e-07 -2.3626883e-07 -2.173032e-07 -9.641179e-08 -9.905149e-08 -1.0476057e-07 -1.0573184e-07 -2.258323e-07
-1.4633079e-07 -2.8997837e-07 -3.8110213e-07 -4.1385107e-07 -1.3956114e-07 -2.440329e-07 -2.3104184e-07 -9.0775714e-08
-1.9268886e-07 -8.011371e-08 -2.2526987e-07 -2.7382373e-07 -2.538326e-07 -1.1431672e-07 -1.3050415e-07 -1.4361366e-07
-8.568582e-08 -1.9265515e-07 -7.607774e-08 -2.5012108e-07 -2.7371254e-07 -2.8222084e-07 -1.263161e-07 -1.4364913e-07
-1.4234129e-07 -1.453087e-07 -5.0463704e-09 3.2089115e-08 -1.3356079e-07 -7.339008e-08 -8.842409e-08 -1.7847879e-07
-1.2968273e-07 -4.2519375e-08 -9.6021445e-08 -2.0748057e-07 -8.271244e-08 -2.5932562e-07 -2.7654988e-07 -2.9589987e-07
-1.3715906e-07 -1.6449125e-07 -1.669322e-07 -5.1411703e-08 -1.4412356e-07 -1.968606e-08 -1.7915201e-07 -1.7516703e-07
-1.7150712e-07 -7.390501e-08 -6.9037334e-08 -8.296351e-08 -0.015957296 -0.011203002 0.02519438 -0.1238766
0.009859345 -0.029197285 0.0058967895 -0.0029901776 0.01593094 -0.034175135 -0.041738376 -0.0032167211
-0.1511566 -0.020119876 -0.043188475 -4.57766e-05 -0.007779015 0.01947326 -0.0051058116 -0.004693002
0.020349119 -0.10230035 0.028304359 -0.02693067 -0.021152457 -0.014775415 0.009944139 0.027089672
0.021172367 -0.0006251152 0.08298306 -0.039813112 0.021984402 0.04323311 0.049443707 0.017395431
0.022978105 0.06494811 0.020157687 0.08900735 -0.011669575 0.030185891 0.045772627 0.07670911
0.03459598 0.015822103 0.031334132 -0.010254433 0.081632264 -0.02892744 0.016275799 0.041276123
0.068158075 0.013394852 0.032333832 0.03777604 0.0071605374 0.085119545 -0.030959513 0.026122648
0.042088695 0.050098084 0.020813014 0.037059717 0.07538113 0.009844857 0.055099394 0.026968382
0.036190666 -0.08976525 -0.05808615 -0.019505158 0.023296727 0.032485854 -0.0031222657 0.07889059

A.2.weight f4 [10, 10, 3, 3]
00000000: b36b 99bd e83d dabc 0efd 72bd e8c6 0b3e
00000010: 8547 5e3e dcbd ca3d 15ed 2fbd 7695 a43c
00000020: 8732 b2ba c5aa e332 7f6d 9d32 a6b0 6c32
00000030: c646 2333 1307 fb30 d723 93b2 dc7a 9831
00000040: 0707 13b2 201e f7b1 07dc 9dbc 7ce6 73bd
00000050: 7fda ae3b d6ec 41bd acfc f2bd f37f b4bc
00000060: a06b e8bc efb6 8fbd 8576 96bc a601 00b9
00000070: 53ad 1f3a 5aa7 2d3b aec0 deb8 c30b 8a3a
00000080: e2b1 3d3b 8061 b1b8 8804 bf3a 99ad 4e3b
00000090: bfdd 2ebd 9a0c 36bd bbca 92bb 5d1d 06bd
000000a0: 68f0 47bd f083 3abd bc44 3bbd 4b1e 1abd
000000b0: b95b e23b 6e23 d0bc 19b4 1a3d d546 a63c
000000c0: 0e17 1b3c f3d4 bd3d 2fb2 7b3d 46d2 a23a
000000d0: bd7d 683d 1eb0 8c3c 3f0e 17bd 8823 c73c
000000e0: f0a6 113d 00a5 5abc 12d9 f53c 51ab 383d
000000f0: 4f2e 07bd f4ab f63c 755a 673d a12a f83c
00000100: f753 dfbb 6e9b 293d dd40 e8bc dd2e b9bd
00000110: 9424 ddbc 7307 433d 5e04 253d d3c1 c93d
00000120: 7cd6 febb fec2 e83c 53c7 ddbb 56ab a23c
00000130: 2998 863d b04a 153c 0a1a 99bd b973 23bd
00000140: 9abb 87bd 2a1d 623c 7ed2 193d 9427 cb3c
00000150: cffd 433c e42b 2f3d 408b 0a3c dbbe 003c
00000160: 1ec9 123d e6c5 a93b a636 0fbd 24d3 32bd
00000170: 6196 a2bc 9047 373e 7323 743e 2c5c 0f3e
00000180: b2ae cbbc fa4e 56bc c906 193c 520f 5331
00000190: c64b 8db0 7530 68b1 1172 3cb3 bfee e7b3
000001a0: a746 cab3 eb54 1ab0 de10 8730 716e 8432
000001b0: 63d4 6ebc c747 7dbd 1736 a23c 37bb f5bc
000001c0: 3356 cebd 3fb4 5b3c 171a 0abd 4733 88bd
000001d0: 2e50 79bc 72a0 eab8 2fcc 993a 221b c93a
000001e0: 651e d6b8 732a 8e3a 3c87 073b b9ff 8737
000001f0: 8ecb e43a da6c 303b f7f9 82bd 98a8 51bd
00000200: 4f99 99bb d0ba 82bd e0ed 6bbd f643 53bd
00000210: 9e41 d3bd 80d3 89bd b3e3 85bc a06a ecbb
00000220: 5d8f fb3c 69df 1c3c d48e ce3c bd0a a93d
00000230: 53b6 7b3d 7262 813c b64b 0a3d 768f 743b
00000240: 24f1 38bd a488 013d 145d 8a3c 373e f1ba
00000250: 1949 d43c 83ab 843b 5414 e7bc 63a4 8f3c
00000260: 2021 e83c 5052 393d f2c1 dfbc a66b 8d3c
00000270: de6e e238 5e45 90bd f0ad 22bd 9bc1 923d
00000280: 4878 3d3d 70c2 b83d ac24 aabb 2ad7 5b3b
00000290: b180 1ebc 4a0e a0bb bf83 9c3c d631 c63b
000002a0: 04b6 8ebd 6a57 97bd 3381 7cbd 1475 f63b
000002b0: 9826 d23c 6b67 8a3c 6497 003c 1fca b13c
000002c0: 80fd ad3b ea9a 4d3c c6b7 213c c773 873b
000002d0: 324f cabd 0a55 45bd 6b88 afbd 54a2 aa3d
000002e0: 37c0 213e 4fce 883d 71c8 3abd 279c af3b
000002f0: 21b1 11bc f853 8f31 786c 0132 d528 2c31
00000300: 200f ff32 b3f3 8632 22f7 9b2d aedc fc31
00000310: 9f14 0fb2 794c 3cb2 c24e ceba 4b84 3dbd
00000320: 39b7 ab3b 52ca 28bd 9d86 edbd fa4e 2dbc
00000330: 6723 b4bc 56a8 89bd 7f47 cbbb 5d00 9db8
00000340: 385e 0e3b ec4b 1e3b 0cdd 96b8 9e6e 023b
00000350: 8cd1 313b b3de b5b8 919b ea3a 102f 3b3b
00000360: c7d0 5bbd f718 fbbc d5f0 a83b b61d 17bd
00000370: 6a59 45bd 79df e3bc 96c3 dbbc 9d5c f5bc
00000380: 1ea3 f1b8 3e4a e4bc f638 b03c 6b12 873c
00000390: b570 cb3c 8f4c ca3d 2a7b 8e3d fbf1 80bc
000003a0: ca46 1c3d cbb1 183c 9b39 73bd fa11 8f3c
000003b0: 9dba 073d 0ad9 c9bb cf87 393d f409 523d
000003c0: 0720 20bd 56e1 8a3c 4513 313d 9cd1 0c3d
000003d0: 96d7 d439 5b19 203d 1d3e afbc 27df a0bd
000003e0: 6cbd 9abc c4e5 133d 8ab6 5c3c 95c8 873d
000003f0: b09c 89bb 078a e93c c426 313c b924 283d
-0.07491245 -0.026640847 -0.059323363 0.13650095 0.2170697 0.09899494 -0.04295071 0.0200908
-0.0013595381 2.6503935e-08 1.8326999e-08 1.3777173e-08 3.8015763e-08 1.8264664e-09 -1.712935e-08 4.4377497e-09
-8.558124e-09 -7.192071e-09 -0.019269956 -0.05954598 0.0053361054 -0.047345005 -0.118645996 -0.022033667
-0.028371632 -0.07017314 -0.018367061 -0.00012207645 0.0006091196 0.0026497454 -0.00010621674 0.001053207
0.0028945138 -8.4581785e-05 0.0014573494 0.0031536578 -0.042691942 -0.04444561 -0.0044797338 -0.032742847
-0.048813254 -0.04553598 -0.045719847 -0.037626546 0.006907907 -0.02540752 0.03776941 0.020297447
0.009465946 0.092691325 0.061449226 0.0012422286 0.05676054 0.017173823 -0.03687882 0.024308935
0.035559595 -0.013345003 0.030010734 0.045085255 -0.033003148 0.03011129 0.05648275 0.030293765
-0.0068154293 0.041407995 -0.028351242 -0.090421416 -0.02699498 0.047614526 0.040287368 0.09851422
-0.0077770334 0.028413292 -0.006768146 0.01985709 0.06571991 0.009112045 -0.0747567 -0.039905284
-0.06627579 0.013800899 0.037554257 0.024799146 0.011962368 0.042766467 0.008456051 0.0078580035
0.03583633 0.005181062 -0.034964226 -0.04365839 -0.019847097 0.17898393 0.23841648 0.14000005
-0.024863575 -0.013080353 0.009339997 3.071325e-09 -1.0280636e-09 -3.3787988e-09 -4.3875904e-08 -1.08002034e-07
-9.4192096e-08 -5.614555e-10 9.827337e-10 1.5417045e-08 -0.014577004 -0.06183603 0.019801183 -0.029996498
-0.10075035 0.013409673 -0.033716287 -0.066504054 -0.01521687 -0.00011187875 0.0011733825 0.0015343169
-0.000102099766 0.0010846391 0.0020679971 1.6212334e-05 0.0017455684 0.002692035 -0.06395333 -0.051186174
-0.0046874653 -0.06383288 -0.057599902 -0.051578484 -0.1031525 -0.067297935 -0.016343927 -0.007214859
0.03070801 0.0095747495 0.02521459 0.08254001 0.061453175 0.015794013 0.03376361 0.0037316955
-0.045151845 0.03162445 0.016890086 -0.0018405382 0.025913762 0.004048766 -0.028207935 0.01753444
0.028336108 0.045244515 -0.02731416 0.017263245 0.000107971704 -0.07044481 -0.03971666 0.071658336
0.046257287 0.09021461 -0.00519236 0.0033544996 -0.009674237 -0.004884516 0.01910579 0.0060484214
-0.069683105 -0.0738972 -0.06164665 0.007521281 0.025653169 0.016895017 0.007848594 0.021702824
0.0053097606 0.012549141 0.009870475 0.004133675 -0.098783866 -0.048176803 -0.085709415 0.08331743
0.1579598 0.06679975 -0.045601312 0.005359191 -0.0088923285 4.171394e-09 7.533451e-09 2.5052505e-09
2.9692785e-08 1.5710475e-08 1.7731209e-11 7.3592537e-09 -8.328384e-09 -1.0960428e-08 -0.0015740024 -0.046268743
0.0052403477 -0.041208573 -0.11597941 -0.0105779115 -0.021989537 -0.06721561 -0.0062035914 -7.486411e-05
0.002172364 0.002415414 -7.1937306e-05 0.0019902359 0.0027132956 -8.6722335e-05 0.0017899146 0.0028561987
-0.053665902 -0.030651553 0.0051556625 -0.03689357 -0.048180975 -0.027816521 -0.026826661 -0.029951388
-0.000115221585 -0.027867433 0.021511536 0.016488275 0.024834016 0.09877884 0.069570854 -0.015740385
0.038153447 0.009319733 -0.05938111 0.017464627 0.033136953 -0.0061599063 0.045295533 0.051279023
-0.039093044 0.016953152 0.043231267 0.034379587 0.00040596415 0.03908668 -0.021391923 -0.07855063
-0.018889152 0.036107793 0.013471255 0.06630055 -0.004199587 0.0285082 0.010812465 0.041050646

B.weight f4 [10, 10, 2, 2]
00000000: 6e31 2cc1 190b 30c1 d5d3 2cc1 c6e7 2dc1
00000010: aafc 2dc1 1a15 2dc1 a03e 30c1 852d 2ec1
00000020: 4f6a 29c1 d784 2ec1 b19a 2bc1 ac62 2cc1
00000030: 6a66 2ac1 95da 2ac1 e6e2 28c1 c6e7 27c1
00000040: 0903 2ec1 3200 2bc1 d3f2 2bc1 63a9 2ec1
00000050: b2a6 27c1 c976 2bc1 b525 2ac1 928a 29c1
00000060: 1f84 27c1 9383 29c1 dfea 29c1 15c3 26c1
00000070: bc55 26c1 6cb6 20c1 8eea 21c1 05e1 22c1
00000080: 71b4 26c1 2b0d 28c1 5528 2ac1 5909 26c1
00000090: ae5d 27c1 c3b3 2cc1 0f5e 2cc1 0b11 29c1
000000a0: b707 2cc1 2f9d 2dc1 73d0 2ec1 2765 2ec1
000000b0: 726a 2ec1 b592 2fc1 e8cd 2fc1 18d2 2dc1
000000c0: 9f7a 29c1 d0ba 2cc1 6eb1 2cc1 c34e 2bc1
000000d0: 50f5 28c1 1751 2ac1 a833 2bc1 4387 29c1
000000e0: c415 2dc1 b80c 2cc1 5da3 2bc1 bd0a 2ec1
000000f0: 70e5 28c1 20a5 28c1 ad9f 2ac1 bb79 2ac1
00000100: 847f 2ac1 00b8 27c1 57ee 29c1 a53e 2ac1
00000110: b203 26c1 204c 21c1 8932 21c1 de5f 23c1
00000120: fc9d 25c1 1974 27c1 06d0 29c1 7dfb 25c1
00000130: 8d2f 29c1 6f43 29c1 b6f1 2ac1 3def 25c1
00000140: 1d51 2bc1 6bac 2ec1 e377 2cc1 495e 2dc1
00000150: 7c7c 2fc1 6f24 2fc1 f2cf 2ec1 4e8e 2dc1
00000160: 7731 29c1 9781 2ec1 b995 2cc1 c81f 2ac1
00000170: 45aa 29c1 a433 2bc1 a5bc 29c1 c6c2 2ac1
00000180: cbb4 2bc1 4953 2dc1 1765 2bc1 3b80 2fc1
00000190: d64a 27c1 1af9 28c1 14e3 28c1 1e88 28c1
000001a0: a399 26c1 a749 29c1 d485 29c1 dd94 2ac1
000001b0: 34fb 24c1 de62 21c1 7540 20c1 8b47 24c1
000001c0: 6777 24c1 a6bf 27c1 1ec0 29c1 5285 26c1
000001d0: ed52 28c1 d2c7 2ac1 29f0 29c1 37ef 27c1
000001e0: bf9c 2bc1 e2cc 2fc1 0fb0 2fc1 68ad 2ec1
000001f0: 4a91 30c1 d6ba 2ec1 c522 30c1 fceb 2fc1
00000200: 7e8c 29c1 a8b5 2cc1 9ffb 2cc1 635f 2ac1
00000210: 1d5b 2ac1 523f 2bc1 2eab 2cc1 f974 2bc1
00000220: 8925 2ec1 d63a 2dc1 3de8 2dc1 72cf 2fc1
00000230: 895b 28c1 0193 29c1 2582 2ac1 4581 2bc1
00000240: 816a 2bc1 9317 28c1 2794 27c1 0f55 29c1
00000250: b230 27c1 f1d4 21c1 3c5a 21c1 9fda 21c1
00000260: 703b 27c1 3854 28c1 d6ea 25c1 640b 28c1
00000270: bff9 29c1 fdcb 2ac1 25ef 2bc1 eec6 29c1
00000280: a868 2bc1 3261 31c1 caff 2ec1 422b 30c1
00000290: 7221 2ec1 6d68 2fc1 d44f 30c1 7d00 2fc1
000002a0: fe8b 2bc1 4654 2ec1 63cb 2dc1 e5f7 2bc1
000002b0: ed9c 2ac1 6ab8 29c1 9ec1 2ac1 5a8b 2bc1
000002c0: cd85 2ec1 8e9c 2dc1 f1c6 2bc1 f3ee 2bc1
000002d0: 1159 2ac1 e7af 2bc1 be95 29c1 5766 2ac1
000002e0: 2552 27c1 1981 2bc1 2afb 2bc1 82ea 29c1
000002f0: 84fd 23c1 38ca 20c1 c8e5 21c1 62cb 20c1
00000300: 62a7 24c1 68f7 26c1 573b 26c1 9a1d 27c1
00000310: 47a9 28c1 ec20 2ac1 622a 2bc1 751f 29c1
00000320: bac7 2ec1 5491 30c1 234b 2fc1 2dde 2dc1
00000330: fe25 2ec1 1b78 2ec1 5b58 30c1 16c7 2dc1
00000340: 4d31 2cc1 90b1 2ec1 a0fb 2cc1 1868 2dc1
00000350: 7658 2ac1 11a0 2ac1 bc3d 29c1 b6c3 29c1
00000360: 8f82 2cc1 e4a5 2ec1 28bc 2bc1 6588 2cc1
00000370: 0d57 2ac1 1fdf 29c1 4043 2ac1 bae4 29c1
00000380: c12a 2bc1 ab1d 29c1 a979 29c1 5a37 2bc1
00000390: 1e9b 24c1 2dc3 22c1 74bf 1fc1 1aea 23c1
000003a0: f1e7 25c1 eafe 27c1 924f 26c1 9a04 28c1
000003b0: 1cce 28c1 8d25 2dc1 816e 2bc1 4d14 27c1
000003c0: ebb0 2d41 6b56 3041 08b0 2941 e7bd 2941
000003d0: b350 2c41 5ee6 2e41 78be 2d41 5cba 2c41
000003e0: fbab 2941 c8c0 2d41 2a95 2741 7eb6 2841
000003f0: 30bd 2741 b2dc 2641 7251 2641 9fa9 2841
-10.762068 -11.002709 -10.801717 -10.869085 -10.874186 -10.817652 -11.015289 -10.886113
-10.588454 -10.907432 -10.725266 -10.77409 -10.650003 -10.678365 -10.555395 -10.494085
-10.875741 -10.687548 -10.746783 -10.916354 -10.478197 -10.7165 -10.634206 -10.596331
-10.469756 -10.594623 -10.619842 -10.422627 -10.395931 -10.044537 -10.119764 -10.179936
-10.419053 -10.503215 -10.634847 -10.377282 -10.460371 -10.793887 -10.772964 -10.566661
-10.7518835 -10.850875 -10.925891 -10.899695 -10.900988 -10.973317 -10.98777 -10.863792
-10.592437 -10.7956085 -10.793318 -10.706729 -10.559891 -10.644797 -10.700111 -10.595523
-10.817814 -10.753105 -10.727384 -10.877622 -10.556015 -10.540314 -10.663983 -10.654719
-10.656132 -10.482422 -10.620688 -10.640294 -10.375902 -10.081085 -10.074838 -10.210905
-10.35107 -10.465844 -10.613287 -10.3738985 -10.574109 -10.578963 -10.684011 -10.370908
-10.707303 -10.917094 -10.779269 -10.835519 -10.967892 -10.946395 -10.925768 -10.847242
-10.574576 -10.906638 -10.786553 -10.632759 -10.60407 -10.700108 -10.608556 -10.672552
-10.731639 -10.832833 -10.71218 -10.968806 -10.4557705 -10.560816 -10.555439 -10.533232
-10.412509 -10.580482 -10.595173 -10.661344 -10.311329 -10.0866375 -10.015737 -10.267467
-10.279151 -10.484289 -10.609404 -10.407549 -10.520246 -10.673784 -10.621133 -10.495902
-10.725768 -10.98752 -10.980483 -10.9173355 -11.035471 -10.920614 -11.008489 -10.995113
-10.5968 -10.79435 -10.811431 -10.648288 -10.647244 -10.702959 -10.791792 -10.716058
-10.884164 -10.826864 -10.869199 -10.988146 -10.522347 -10.59839 -10.656774 -10.71906
-10.713502 -10.505755 -10.47367 -10.583266 -10.4493885 -10.114488 -10.08453 -10.115874
-10.452011 -10.520561 -10.369833 -10.502781 -10.623473 -10.674802 -10.745885 -10.611067
-10.713051 -11.086229 -10.9374485 -11.010561 -10.883165 -10.962995 -11.019489 -10.937619
-10.721678 -10.895575 -10.862155 -10.748021 -10.663312 -10.607523 -10.67227 -10.721521
-10.907666 -10.850721 -10.73607 -10.745837 -10.646745 -10.730445 -10.599058 -10.649985
-10.457555 -10.719018 -10.748819 -10.619753 -10.249393 -10.04937 -10.118599 -10.049654
-10.290865 -10.435402 -10.389487 -10.444727 -10.541327 -10.633038 -10.697847 -10.57018
-10.923761 -11.0354805 -10.955844 -10.866742 -10.884275 -10.904323 -11.021571 -10.861105
-10.762036 -10.91835 -10.811432 -10.8379135 -10.646597 -10.664079 -10.577572 -10.610281
-10.781875 -10.915501 -10.733437 -10.783299 -10.646253 -10.616973 -10.641418 -10.618341
-10.697938 -10.569743 -10.592202 -10.701014 -10.28787 -10.17265 -9.9842415 -10.244654
-10.369126 -10.499735 -10.394426 -10.501123 -10.55032 -10.821668 -10.7144785 -10.442456
10.855693 11.021098 10.605476 10.608863 10.769702 10.931242 10.859001 10.795498
10.604487 10.859566 10.473917 10.544554 10.483688 10.428881 10.394884 10.541411

C.weight f4 [10, 1, 2, 2]
00000000: 3d0f 0f3f 98b7 303f 0081 373f 708f 343f
00000010: 818f 1d3f fd36 053f 1d0c 463f b72e 2f3f
00000020: 381d 2d3f 3f9c 303f 9f54 263f 8cb8 303f
00000030: e7a4 38bf d1c8 15bf df23 1abf c45a 27bf
00000040: 8401 05bf e922 37bf c7e8 0ebf a3ac 37bf
00000050: e37f 3dbf d62b 18bf 2e22 0abf f15b 31bf
00000060: 648d 28bf a791 1fbf 12d3 26bf ba40 23bf
00000070: 0ea6 473f 2142 4d3f f1cd 23bf 77ea 1bbf
00000080: 6cfe 23bf 2b51 35bf 46d0 2cbf 49dc 09bf
00000090: 0fda 31bf 6542 2ebf 80b7 2ebf 3065 cdbe
0.55882627 0.6903014 0.71681213 0.7053137 0.61547095 0.5203703 0.77362233 0.68430656
0.6762271 0.6898841 0.6497287 0.69031596 -0.7212662 -0.58509547 -0.60210985 -0.6537287
-0.5195544 -0.71537644 -0.5582394 -0.717478 -0.74023265 -0.5944189 -0.53958404 -0.69280916
-0.65840745 -0.6233162 -0.6516582 -0.6377064 0.77987754 0.8017903 -0.63986117 -0.6090464
-0.6406009 -0.7082698 -0.675053 -0.53851753 -0.69473356 -0.6807006 -0.6824875 -0.40116262
