runs/checkpoint.pth.tar (torch, 12826 bytes, 4 tensors)

A.0.weight f4 [10, 10, 3, 3]
0.01938465 -0.030127963 -0.1333322 0.009959213 -0.058239933 -0.14906825 0.029204203 -0.03357694
-0.15298845 -0.0044422853 -0.057424143 -0.119037084 0.003421793 -0.05979586 -0.13400869 -0.008896239
-0.018069543 -0.11674963 0.05089839 -0.026511168 0.053380903 0.051901534 -0.02387497 0.016454767
0.069172405 -0.02018835 -0.028114222 0.0060851765 -0.020281475 -0.13481967 0.012390711 -0.046636164
-0.14655575 0.0063585076 -0.019007867 -0.1355898 0.02170238 -0.04909711 -0.12238041 0.043471012
-0.057217203 -0.13411501 0.025624147 0.0051694987 -0.12625836 -0.07681016 0.02187791 0.11783869
-0.04730237 0.04875855 0.11459515 -0.06419883 0.014372285 0.10655679 0.06771398 -0.10849517
0.17530206 -0.0019941807 -0.14776555 0.16757055 0.05577012 -0.122053735 0.19398229 0.092258446
-0.10513041 -0.025980331 0.051247135 -0.10284665 -0.050339762 0.06759845 -0.08751746 -0.03182284
-0.07968449 -0.12173871 -0.1569425 -0.016353622 -0.2195511 -0.14808385 -0.07873461 -0.1562191
-0.1824332 0.09025285 -0.0015135305 -0.02459492 0.054956213 0.008892896 -0.03612244 0.09158132
0.018724611 -0.03732139 -0.05355471 -0.11451312 -0.049169682 -0.0076965014 0.0144958515 0.07034296
-0.06969712 -0.14173622 -0.068179496 -0.10926233 -0.11707984 -0.054506525 0.008817456 0.047304414
0.07544612 -0.064185664 -0.115940675 -0.032984246 -0.14956711 0.07147599 -0.08975715 -0.14208998
0.14954355 0.01114722 -0.24034399 -0.036950663 -0.1261664 -0.06501772 -0.19636722 -0.05902118
-0.01505967 -0.033311717 0.053249758 -0.054974243 -0.18794519 -0.046067826 -0.07261474 -0.10726752
-0.03551726 0.006131728 0.016488757 0.062574 -0.05810472 -0.11388647 -0.023320133 0.11848266
0.10240114 0.035488635 0.032413933 -0.04332533 -0.08057561 0.1105368 0.097756475 0.029254789
-0.12631221 0.12173725 -0.014616887 -0.17450376 0.10465634 0.00014186553 -0.11961526 0.14780049
0.030192835 -0.21652506 -0.0889342 -0.0962707 -0.088779874 0.09557344 0.066272445 -0.14113705
-0.019436587 -0.056231685 0.15493418 -0.09571343 0.02050509 0.1961009 -0.111511886 -0.018231835
0.15597226 -0.11883869 -0.01978075 -0.15417738 -0.05068827 -0.05028943 -0.13033698 0.07303299
0.058650233 -0.1470698 -0.04130478 -0.026538013 0.033298876 -0.012143203 0.010756878 0.031756666
-0.08473505 0.06574086 0.06309677 -0.04704517 0.01528836 0.035459608 0.03457357 -0.023626486
0.044972003 -0.030982863 0.07440977 0.05798446 -0.09065226 0.0207731 0.042189512 -0.05424147
-0.04757069 -0.019184211 -0.12920171 -0.052620623 0.0070263096 0.020304844 0.042576544 0.034136854
0.016850604 -0.0051219044 0.03784774 -0.04679142 0.07218199 0.065683976 -0.09363392 0.008893771
0.027618982 0.0058713127 -0.014673767 0.047076754 -0.08464028 0.051408336 0.063774064 -0.07888063
0.020628884 0.0015786678 0.045713767 0.03112211 -0.030937117 0.06090301 -0.054747254 -0.055917133
0.09414043 -0.025206387 0.041841637 -0.13064282 0.07375052 -0.08737559 -0.118412934 -0.028402898
-0.054243945 -0.091042645 0.04259252 0.034750596 0.015784606 0.026416654 -0.024035001 -0.0008265571
0.03732656 0.07236336 -0.0981464 -0.033212878 -0.07410191 0.13544174 -0.08314496 0.09764063
00000000: 8fcc 9e3c ebce f6bc 3c88 08be f82b 233c
00000010: ff8c 6ebd 59a5 18be a73d ef3c f987 09bd
00000020: 01a9 1cbe 9790 91bb 9435 6bbd b7c9 f3bd
00000030: 2940 603b 81ec 74bd 9339 09be 88c1 11bc
00000040: 9406 94bc 6e1a efbd d57a 503d f32d d9bc
00000050: efa5 5a3d b496 543d 7195 c3bc 26cc 863c
00000060: 43aa 8d3d 0a62 a5bc cc4f e6bc 2966 c73b
00000070: 5625 a6bc 2b0e 0abe 6902 4b3c 9005 3fbd
00000080: b612 16be 075b d03b 63b6 9bbc 0dd8 0abe
00000090: 31c9 b13c 0d1a 49bd 95a2 fabd a90e 323d
000000a0: 965c 6abd 7255 09be bbe9 d13c e664 a93b
000000b0: df49 01be a54e 9dbd 4d39 b33c 6955 f13d
000000c0: 21c0 41bd 0cb7 473d ddb0 ea3d ad7a 83bd
000000d0: bc79 6b3c 723a da3d a1ad 8a3d b732 debd
000000e0: 6282 333e cdb0 02bb da4f 17be 9d97 2b3e
000000f0: 366f 643d 4ff7 f9bd 4ba3 463e fff1 bc3d
00000100: 9d4e d7bd b4d4 d4bc 84e8 513d 44a1 d2bd
00000110: 1131 4ebd 0e71 8a3d 5b3c b3bd ab58 02bd
00000120: 9f31 a3bd 2552 f9bd 89b5 20be 08f8 85bc
00000130: 01d2 60be 4ba3 17be 9c3f a1bd e6f7 1fbe
00000140: c5cf 3abe 7cd6 b83d a861 c6ba 497b c9bc
00000150: c419 613d 82b3 113c 20f5 13bd fd8e bb3d
00000160: 5b64 993c 50de 18bd 2f5c 5bbd db85 eabd
00000170: 2666 49bd ef32 fcbb 0280 6d3c f80f 903d
00000180: 5dbd 8ebd 4d23 11be b1a1 8bbd eec4 dfbd
00000190: 8ec7 efbd 3c42 5fbd 1777 103c 46c2 413d
000001a0: 7f83 9a3d c673 83bd 4e72 edbd 7d1a 07bd
000001b0: 1f28 19be 0162 923d 99d2 b7bd 0980 11be
000001c0: f221 193e d4a2 363c bc1c 76be 9459 17bd
000001d0: c431 01be 0328 85bd 7d14 49be 31c0 71bd
000001e0: d6bc 76bc de71 08bd 6b1c 5a3d ac2c 61bd
000001f0: b474 40be 9eb1 3cbd 09b7 94bd 13af dbbd
00000200: 8c7a 11bd aaec c83b 6e13 873c cc26 803d
00000210: 37ff 6dbd 4f3d e9bd dd09 bfbc 09a7 f23d
00000220: b0b7 d13d 885c 113d 79c4 043d e775 31bd
00000230: d304 a5bd 1e61 e23d 8c34 c83d bda7 ef3c
00000240: fd57 01be 6151 f93d ab7b 6fbc 1db1 32be
00000250: 1056 d63d bdc1 1439 d8f8 f4bd 0359 173e
00000260: f756 f73c bfb8 5dbe 2223 b6bd 9329 c5bd
00000270: 39d2 b5bd 02bc c33d d9b9 873d 3b86 10be
00000280: 7a39 9fbc 3253 66bd 11a7 1e3e 6705 c4bd
00000290: 4afa a73c adce 483e 5860 e4bd ee5a 95bc
000002a0: 31b7 1f3e b361 f3bd 3d0b a2bc ade0 1dbe
000002b0: 819e 4fbd 4afc 4dbd 0f77 05be 5292 953d
000002c0: 3a3b 703d 7799 16be 332f 29bd 3f66 d9bc
000002d0: 6764 083d 49f4 46bc 9e3d 303c 4713 023d
000002e0: 9289 adbd 25a3 863d e138 813d 70b2 40bd
000002f0: 087c 7a3c 183e 113d 049d 0d3d 558c c1bc
00000300: 9034 383d c6cf fdbc 2664 983d 1d81 6d3d
00000310: e4a7 b9bd 592c aa3c e9ce 2c3d 4e2c 5ebd
00000320: 7cd9 42bd 3528 9dbc 744d 04be b988 57bd
00000330: f53c e63b 5856 a63c be64 2e3d 16d3 0b3d
00000340: 470a 8a3c a6d5 a7bb 3b06 1b3d 5ca8 3fbd
00000350: 27d4 933d 5285 863d 24c3 bfbd 2eb7 113c
00000360: 3441 e23c 2464 c03b 3d6a 70bc 8ed3 403d
00000370: e257 adbd 8c91 523d fa9b 823d 2b8c a1bd
00000380: e8fd a83c 4deb ce3a 5c3e 3b3d ccf3 fe3c
00000390: d66f fdbc 6f75 793d a83e 60bd 5d09 65bd
000003a0: b3cc c03d a07d cebc 2362 2b3d 3bc7 05be
000003b0: 830a 973d f9f1 b2bd 7b82 f2bd 32ad e8bc
000003c0: e62e 5ebd 9174 babd 7f75 2e3d a456 0e3d
000003d0: b84e 813c bd67 d83c 0de5 c4bc 4fad 58ba
000003e0: bce3 183d 3e33 943d fb00 c9bd 3a0a 08bd
000003f0: bec2 97bd 3db1 0a3e e847 aabd d0f7 c73d

A.2.weight f4 [10, 10, 3, 3]
0.020767594 -0.02332323 0.028007204 0.030883329 -0.08803973 0.02171818 0.0579701 -0.06568004
0.028043933 0.034992475 0.06225765 0.05172171 0.012509998 -0.016193159 0.04011901 0.04180965
0.08057402 0.077898495 -0.022489576 0.014067044 -0.059862204 -0.049792163 -0.011763308 -0.03793445
0.019922996 -0.023139328 -0.019202676 -0.008706879 -0.0030306098 0.0072705564 0.026534867 -0.04237303
0.21377242 0.017263785 -0.02186877 -0.037461374 0.029337045 -0.06560526 0.013594399 -0.008620975
-0.08753788 -0.05361191 0.06461756 -0.10229726 0.05098735 -0.07251558 -0.015192062 -0.08294674
-0.03235734 -0.036684085 -0.0069685886 -0.03976107 -0.10414467 -0.014953898 -0.0842921 -0.018209497
0.0001068129 -0.04307077 -0.037333477 -0.085991286 -0.04744685 -0.07271472 0.04486265 -0.0496713
0.073629834 -0.038796775 -0.055248708 0.03305948 -0.09542012 -0.1270653 0.062336713 -0.049825307
0.018843997 -0.08868255 0.0392751 0.035062622 -0.009668924 0.019213868 0.030298183 -0.12687457
0.03975463 0.025912508 0.099132426 -0.0038698476 -0.040558822 0.20862675 -0.027658518 0.028073164
0.05347282 -0.017743943 0.035160895 -0.05035432 0.02904765 0.036956128 -0.086734235 0.028205737
0.06122641 -0.055885088 0.023374226 0.043610677 0.10762328 0.076406404 0.02763246 0.0009741985
0.038949203 0.042975485 0.07414757 0.063113116 -0.0053218617 0.015260666 -0.049337234 -0.052958667
-0.023754632 -0.051216442 0.018678831 -0.0044905413 -0.004371621 -0.009974406 -0.027747804 0.004050445
0.01854173 -0.0708134 0.18252937 -0.008337917 -0.021616064 0.0017551188 0.006635073 -0.094441675
0.03126763 0.04609908 -0.04841965 -0.017816523 0.037274566 -0.09658576 0.03157696 -0.03661759
0.010347716 -0.02675411 -0.058755152 -0.096103854 -0.047149226 9.8118006e-05 -0.06473828 0.0031613777
-0.06493449 -0.072062574 0.0006790699 -0.095492505 -0.05869973 -0.08536651 -0.031236546 -0.06669288
0.020131025 -0.084938474 -0.0025844718 -0.08392547 -0.09700979 0.05474896 -0.0700016 -0.12860182
0.049869776 -0.078960255 0.020112088 -0.12813759 0.037594393 0.048296824 -0.01648775 0.03236925
0.009056885 -0.101439394 0.032990947 -0.012927701 0.038044736 -0.044413906 0.0027470302 0.28323612
0.032098014 0.026673878 0.06834823 -0.029008016 0.064296566 0.020582782 0.032181926 0.057012714
-0.016009677 0.01659634 0.07050083 0.004726853 0.024639903 0.042427447 0.016806528 0.009135447
-0.086680174 -0.019441357 0.04627297 0.015738176 -0.03173382 -0.043018177 -0.05164838 -0.041774742
-0.040002935 -0.023231627 -0.07440964 0.022350727 0.027031891 -0.101847515 -0.05054272 -0.028755656
0.08583343 -0.07341242 -0.011081461 0.13372691 0.19885583 -0.0030533227 0.047418255 -0.26283693
-0.028186014 0.008845438 -0.056295894 -0.040786732 -0.023719138 0.05920312 -0.045444723 -0.019762702
0.038917862 -0.04899065 0.011233003 -0.14484335 -0.013929273 -0.08066983 0.008895977 0.0011570225
-0.074692555 -0.04249613 -0.055692542 0.1406253 0.006059265 0.02801152 0.0938291 -0.07376737
-0.055068154 0.08613366 0.08225859 0.055121854 0.06952347 0.04547104 0.018052906 -0.037827644
-0.060062665 0.020283101 -0.05140759 -0.05635988 0.049646437 -0.06625626 -0.032934673 -0.03636179
00000000: cd20 aa3c 5c10 bfbc 5d6f e53c 09ff fc3c
00000010: 2d4e b4bd 53ea b13c 0e72 6d3d 4283 86bd
00000020: 64bc e53c 4554 0f3d e101 7f3d 25da 533d
00000030: bcf6 4c3c 84a7 84bc d553 243d 9840 2b3d
00000040: fe03 a53d 3f89 9f3d 0f3c b8bc 7579 663c
00000050: 1232 75bd def2 4bbd e4ba 40bc 2761 1bbd
00000060: 8d35 a33c b08e bdbc ee4e 9dbc 4ca7 0ebc
00000070: 329d 46bb d93d ee3b a65f d93c 588f 2dbd
00000080: 28e7 5a3e c86c 8d3c 2226 b3bc 1971 19bd
00000090: 3e54 f03c 0d5c 86bd 0bbb 5e3c fd3e 0dbc
000000a0: 0f47 b3bd 2a98 5bbd 3656 843d 3a81 d1bd
000000b0: 1dd8 503d 0c83 94bd 20e8 78bc fbdf a9bd
000000c0: 2189 04bd 0d42 16bd c258 e4bb 81dc 22bd
000000d0: cd49 d5bd 3201 75bc 56a1 acbd 152c 95bc
000000e0: bd00 e038 fa6a 30bd fdea 18bd 331c b0bd
000000f0: a157 42bd 75eb 94bd e6c1 373d 2274 4bbd
00000100: 3dcb 963d 5ee9 1ebd 784c 62bd 6169 073d
00000110: a06b c3bd 681d 02be c854 7f3d 9f15 4cbd
00000120: ba5e 9a3c 329f b5bd edde 203d d39d 0f3d
00000130: 686a 1ebc 6766 9d3c e533 f83c 68eb 01be
00000140: c0d5 223d 7846 d43c f105 cb3d 459d 7dbb
00000150: 0221 26bd 40a2 553e 1e94 e2bc b1f9 e53c
00000160: 5106 5b3d bf5b 91bc df04 103d 5540 4ebd
00000170: 56f5 ed3c 4f5f 173d b8a1 b1bd b80f e73c
00000180: 8bc8 7a3d c3e7 64bd 4e7b bf3c 1ca1 323d
00000190: 9869 dc3d f67a 9c3d 785d e23c 5b61 7f3a
000001a0: 3389 1f3d 1007 303d aeda 973d 7341 813d
000001b0: 0363 aebb df07 7a3c d715 4abd 30eb 58bd
000001c0: 1399 c2bc 55c8 51bd 5904 993c 6425 93bb
000001d0: d13f 8fbb b16b 23bc 5d4f e3bc 98b9 843b
000001e0: d3e4 973c 9e06 91bd fbe8 3a3e c29b 08bc
000001f0: 2c14 b1bc 040c e63a 076b d93b a36a c1bd
00000200: 7d12 003d 64d2 3c3d af53 46bd f5f3 91bc
00000210: 37ad 183d c1ce c5bd d856 013d 53fc 15bd
00000220: 7789 293c 6f2b dbbc 3ea9 70bd 19d2 c4bd
00000230: 8c1f 41bd b4c4 cd38 8195 84bd 1e2f 4f3b
00000240: 60fc 84bd 8b95 93bd 9c03 323a 9391 c3bd
00000250: 216f 70bd a3d4 aebd c9e3 ffbc 4796 88bd
00000260: d2e9 a43c 39f4 adbd 3e60 29bb 1ee1 abbd
00000270: 12ad c6bd 7240 603d 005d 8fbd 32b0 03be
00000280: 4044 4c3d eab5 a1bd 1bc2 a43c 8036 03be
00000290: 94fc 193d e4d2 453d 5111 87bc 9e95 043d
000002a0: 5463 143c 75bf cfbd 8421 073d b5ce 53bc
000002b0: ccd4 1b3d 5beb 35bd 8507 343b 5304 913e
000002c0: 3579 033d 2d83 da3c 28fa 8b3d 38a2 edbc
000002d0: ebad 833d 399d a83c 32d1 033d 2a86 693d
000002e0: ba26 83bc 0cf5 873c bd62 903d b8e3 9a3b
000002f0: 9fd9 c93c 67c8 2d3d d8ad 893c d8ac 153c
00000300: 6085 b1bd 7b43 9fbc ba88 3d3d 59ed 803c
00000310: 52fb 01bd d433 30bd 408d 53bd fe1b 2bbd
00000320: 1eda 23bd 4150 bebc 1564 98bd df18 b73c
00000330: fc71 dd3c 6e95 d0bd e205 4fbd fb90 ebbc
00000340: 70c9 af3d 4059 96bd 048f 35bc b5ef 083e
00000350: dda0 4b3e 411a 48bb a539 423d 9092 86be
00000360: 5be6 e6bc 75ec 103c 8696 66bd fd0f 27bd
00000370: a34e c2bc f97e 723d 3f24 3abd 64e5 a1bc
00000380: 5668 1f3d 6baa 48bd a10a 383c d151 14be
00000390: 9b37 64bc 3936 a5bd 6fc0 113c 3ca7 973a
000003a0: 69f8 98bd 6c10 2ebd dd1d 64bd 1400 103e
000003b0: cd8c c63b 6a78 e53c 7929 c03d 5913 97bd
000003c0: 258f 61bd d866 b03d 3177 a83d 74c7 613d
000003d0: 5262 8e3d d73f 3a3d b0e3 933c 29f1 1abd
000003e0: 4504 76bd bf28 a63c c490 52bd 9ed9 66bd
000003f0: 105a 4b3d 5db1 87bd 82e6 06bd 1af0 14bd

B.weight f4 [10, 10, 2, 2]
-16.441465 -16.300293 -16.634922 -16.386833 -16.96331 -16.801348 -16.768059 -16.621744
-16.574598 -16.657333 -16.838995 -17.04999 -16.766268 -16.548264 -16.894596 -16.611008
-16.420746 -16.342058 -16.879221 -16.665194 -17.029274 -17.158918 -17.116938 -17.096827
-16.673975 -16.575308 -16.699413 -16.576456 -17.112385 -17.030104 -17.100855 -16.986164
-16.055565 -16.125744 -16.434826 -15.936421 -16.96374 -16.931475 -16.928415 -16.86231
16.211472 16.205202 16.529036 16.40911 16.860523 16.831774 16.771769 16.692757
17.068056 16.374292 17.165018 17.102495 16.665478 16.59546 16.783619 16.62355
16.934351 16.614082 16.39314 16.276022 17.00878 16.973003 17.249271 17.113028
16.57637 16.201096 16.77209 16.576363 17.095135 17.131222 16.91654 16.979933
16.615614 15.938334 16.640703 16.47978 17.063463 17.052885 17.02205 16.935564
-16.307201 -16.162481 -16.51676 -16.329971 -16.948494 -16.686308 -16.68583 -16.583122
-16.971203 -16.74671 -17.014921 -17.114561 -16.745745 -16.713812 -16.747238 -16.482807
-16.833628 -16.713741 -16.71944 -16.572466 -17.073162 -17.033531 -17.13886 -17.007027
-16.55924 -16.49187 -16.625343 -16.492315 -17.167706 -17.272812 -17.112175 -16.847992
-16.533985 -16.2883 -16.579393 -16.351074 -17.015982 -16.93155 -16.92004 -17.032894
16.327736 16.217205 16.526842 16.305002 16.957804 16.80147 16.657711 16.492857
16.9577 16.783115 17.00809 16.971266 16.77262 16.542887 16.810009 16.58697
16.900517 16.700184 16.7831 16.556152 17.028004 17.016466 17.164595 17.061241
16.574131 16.601065 16.671288 16.645023 17.108046 17.143948 17.001469 17.021412
16.467304 16.321358 16.573475 16.404806 17.063587 16.948355 16.907404 16.885902
15.497975 16.383997 15.691359 16.804688 16.215658 17.093384 15.896845 16.964678
17.212257 16.911377 17.440613 17.381645 16.12109 16.961544 15.977135 16.944887
17.209986 16.875858 17.07996 16.582232 16.877666 16.873304 16.623917 17.354494
16.729284 16.715338 16.544144 16.6053 16.775425 17.385345 16.492212 17.004227
16.798779 16.287947 16.651026 15.996052 16.91684 17.072882 16.95733 16.978453
16.487644 16.234873 16.153288 16.35601 16.972437 16.903492 16.508083 16.63032
16.808737 16.677559 16.997541 17.189648 16.81605 16.691517 16.382988 16.593122
16.493471 16.846487 16.82763 16.581392 17.141281 17.102144 16.889261 17.127295
16.684593 16.687115 16.563206 16.706062 17.173878 17.106663 16.770134 16.83366
16.614555 16.397913 16.610884 16.399433 16.874994 17.013346 17.061932 16.990353
16.978151 16.306507 15.534965 16.966116 17.469296 16.850399 15.6867075 16.91834
17.373236 16.260996 17.638659 16.238602 17.122465 16.823578 15.755109 16.825418
00000000: 1f88 83c1 0067 82c1 5214 85c1 3c18 83c1
00000010: dcb4 87c1 2969 86c1 fc24 86c1 55f9 84c1
00000020: c798 84c1 3842 85c1 43b6 86c1 6166 88c1
00000030: 5121 86c1 d862 84c1 2228 87c1 58e3 84c1
00000040: b05d 83c1 89bc 82c1 a508 87c1 5152 85c1
00000050: f43b 88c1 7745 89c1 7def 88c1 4dc6 88c1
00000060: 4d64 85c1 3b9a 84c1 6698 85c1 959c 84c1
00000070: 2ae6 88c1 a73d 88c1 8dce 88c1 aae3 87c1
00000080: cc71 80c1 8601 81c1 867a 83c1 95fb 7ec1
00000090: bdb5 87c1 a973 87c1 656d 87c1 03e6 86c1
000000a0: 18b1 8141 41a4 8141 773b 8441 db45 8341
000000b0: 5ae2 8641 79a7 8641 952c 8641 c48a 8541
000000c0: 618b 8841 8dfe 8241 f551 8941 e9d1 8841
000000d0: e652 8541 81c3 8441 da44 8641 08fd 8441
000000e0: 8d79 8741 a4e9 8441 2725 8341 4b35 8241
000000f0: fb11 8841 b6c8 8741 82fe 8941 7be7 8841
00000100: 689c 8441 d89b 8141 3e2d 8641 649c 8441
00000110: d6c2 8841 be0c 8941 1355 8741 e7d6 8741
00000120: c7ec 8441 6b03 7f41 2920 8541 97d6 8341
00000130: f981 8841 4f6c 8841 292d 8841 097c 8741
00000140: 2675 82c1 c34c 81c1 5322 84c1 c8a3 82c1
00000150: 8496 87c1 8f7d 85c1 947c 85c1 3caa 84c1
00000160: 06c5 87c1 43f9 85c1 8f1e 88c1 9fea 88c1
00000170: 49f7 85c1 e3b5 85c1 58fa 85c1 cadc 83c1
00000180: 45ab 86c1 beb5 85c1 6ac1 85c1 6994 84c1
00000190: d695 88c1 ac44 88c1 631c 89c1 640e 88c1
000001a0: 5379 84c1 5aef 83c1 b400 85c1 43f0 83c1
000001b0: 7657 89c1 b82e 8ac1 bce5 88c1 b0c8 86c1
000001c0: 9a45 84c1 704e 82c1 99a2 84c1 00cf 82c1
000001d0: bb20 88c1 d073 87c1 3e5c 87c1 5e43 88c1
000001e0: 349f 8241 d6bc 8141 f936 8441 a570 8241
000001f0: 95a9 8741 6969 8641 fe42 8541 5ff1 8341
00000200: 5fa9 8741 d243 8641 9110 8841 27c5 8741
00000210: 532e 8641 d557 8441 e67a 8641 1db2 8441
00000220: 4234 8741 fa99 8541 ca43 8641 0073 8441
00000230: 5a39 8841 b921 8841 1751 8941 6c7d 8841
00000240: d297 8441 fbce 8441 cc5e 8541 0229 8541
00000250: 47dd 8841 ce26 8941 0203 8841 da2b 8841
00000260: 0abd 8341 2492 8241 7a96 8441 0b3d 8341
00000270: 3a82 8841 3b96 8741 5d42 8741 5416 8741
00000280: b5f7 7741 6d12 8341 ce0f 7b41 0070 8641
00000290: abb9 8141 40bf 8841 7a59 7e41 a9b7 8741
000002a0: b4b2 8941 804a 8741 6086 8b41 9c0d 8b41
000002b0: fef7 8041 3eb1 8741 58a2 7f41 218f 8741
000002c0: 0dae 8941 c201 8741 c2a3 8841 69a8 8441
000002d0: 7605 8741 87fc 8641 c8fd 8441 01d6 8a41
000002e0: 93d5 8541 03b9 8541 685a 8441 a8d7 8441
000002f0: 1234 8641 3015 8b41 0df0 8341 a808 8841
00000300: e663 8641 b74d 8241 4d35 8541 d4ef 7f41
00000310: b055 8741 4395 8841 9da8 8741 dfd3 8741
00000320: b2e6 8341 05e1 8141 ef39 8141 1cd9 8241
00000330: 8dc7 8741 5a3a 8741 8e10 8441 e50a 8541
00000340: 4b78 8641 a46b 8541 f7fa 8741 6684 8941
00000350: 4587 8641 3a88 8541 5c10 8341 b7be 8441
00000360: a1f2 8341 9bc5 8641 fc9e 8641 b1a6 8441
00000370: 5821 8941 31d1 8841 351d 8741 b304 8941
00000380: 0c7a 8541 367f 8541 7281 8441 04a6 8541
00000390: 1a64 8941 72da 8841 3c29 8641 56ab 8641
000003a0: 9cea 8441 ed2e 8341 17e3 8441 0a32 8341
000003b0: fdff 8641 551b 8841 d67e 8841 3eec 8741
000003c0: 41d3 8741 ba73 8241 378f 7841 9bba 8741
000003d0: 1ec1 8b41 9ecd 8641 c1fc 7a41 c358 8741
000003e0: 63fc 8a41 8516 8241 f91b 8d41 a8e8 8141
000003f0: cffa 8841 b096 8641 ed14 7c41 759a 8641

C.weight f4 [10, 1, 2, 2]
-1.0609995 -0.6321688 -1.159278 -0.8694082 -1.111898 -0.74926484 -1.0410942 -0.6013743
-0.0067317192 -1.020453 -0.7950903 -1.1826357 -1.2051809 -0.7371657 -1.1437182 -0.7503289
-0.9978264 -0.52484065 -0.97307163 -0.49952632 0.85939014 0.85849696 0.84634006 0.8279413
1.1575085 -0.81335586 1.1002332 -0.8847258 -0.77658874 -1.1061597 -0.42419425 -1.0652554
-0.8862867 1.1446284 -0.8450899 1.1581272 -0.4907077 -1.1477383 -0.4183739 -1.194194
00000000: d5ce 87bf d1d5 21bf 3963 94bf 8991 5ebf
00000010: ac52 8ebf d2cf 3fbf 9342 85bf abf3 19bf
00000020: c195 dcbb 349e 82bf 0a8b 4bbf 9b60 97bf
00000030: 5e43 9abf e4b6 3cbf 5c65 92bf 8e15 40bf
00000040: 8d71 7fbf f55b 06bf 391b 79bf eac1 ffbe
00000050: fe00 5c3f 75c6 5b3f bea9 583f f6f3 533f
00000060: 3d29 943f 1738 50bf 71d4 8c3f 647d 62bf
00000070: 85ce 46bf a496 8dbf fd2f d9be 4a5a 88bf
00000080: afe3 62bf 2f83 923f d057 58bf 833d 943f
00000090: 0a3e fbbe 17e9 92bf 1b35 d6be 59db 98bf
